preparing model
_________________________________________________________________
Layer (type)                 Output Shape              Param #   
=================================================================
input_1 (InputLayer)         (None, 42)                0         
_________________________________________________________________
dense_1 (Dense)              (None, 32)                1376      
_________________________________________________________________
dense_2 (Dense)              (None, 16)                528       
_________________________________________________________________
dense_3 (Dense)              (None, 8)                 136       
_________________________________________________________________
pred (Dense)                 (None, 3)                 27        
=================================================================
Total params: 2,067
Trainable params: 2,067
Non-trainable params: 0
_________________________________________________________________
try load weight
load weight success
preparing data
prepare data complete
---
train cost:  [2.9640942, 0.44296485]
train cost:  [1.0139666, 0.59532243]
train cost:  [0.96437031, 0.59754556]
train cost:  [0.94725531, 0.596434]
…
